…
          "base_uri": "https://localhost:8080/"
        },
        "id": "XT2pRzlJWQKt",
        "outputId": "9b6d831f-fe7d-473c-cad0-3766193a9c3d"
      },
      "execution_count": 2,
      "outputs": [
        {
          "output_type": "stream",
          "name": "stdout",
          "text": [
            "Model: \"sequential\"\n",
            "_________________________________________________________________\n",
            " Layer (type)                Output Shape              Param #   \n",
            "=================================================================\n",
            " MobilenetV3large (Functiona  (None, 7, 7, 960)        2996352   \n",
            " l)                                                              \n",
            "                                                                 \n",
            " global_average_pooling2d (G  (None, 960)              0         \n",
            " lobalAveragePooling2D)                                          \n",
            "                                                                 \n",
            " dense (Dense)               (None, 512)               492032    \n",
            "                                                                 \n",
            " batch_normalization (BatchN  (None, 512)              2048      \n",
            " ormalization)                                                   \n",
            "                                                                 \n",
            " dropout (Dropout)           (None, 512)               0         \n",
            "                                                                 \n",
            " dense_1 (Dense)             (None, 128)               65664     \n",
            "                                                                 \n",
            " batch_normalization_1 (Batc  (None, 128)              512       \n",
            " hNormalization)                                                 \n",
            "                                                                 \n",
            " dropout_1 (Dropout)         (None, 128)               0         \n",
            "                                                                 \n",
            " dense_2 (Dense)             (None, 6)                 774       \n",
            "                                                                 \n",
            "=================================================================\n",
            "Total params: 3,557,382\n",
            "Trainable params: 3,531,702\n",
            "Non-trainable params: 25,680\n",
            "_________________________________________________________________\n",
            "Model: \"sequential\"\n",
            "_________________________________________________________________\n",
            " Layer (type)                Output Shape              Param #   \n",
            "=================================================================\n",
            " MobilenetV3large (Functiona  (None, 7, 7, 960)        2996352   \n",
            " l)                                                              \n",
            "                                                                 \n",
            " global_average_pooling2d (G  (None, 960)              0         \n",
            " lobalAveragePooling2D)                                          \n",
            "                                                                 \n",
            " dense (Dense)               (None, 512)               492032    \n",
            "                                                                 \n",
            " batch_normalization (BatchN  (None, 512)              2048      \n",
            " ormalization)                                                   \n",
            "                                                                 \n",
            " dropout (Dropout)           (None, 512)               0         \n",
            "                                                                 \n",
            " dense_1 (Dense)             (None, 128)               65664     \n",
            "                                                                 \n",
            " batch_normalization_1 (Batc  (None, 128)              512       \n",
            " hNormalization)                                                 \n",
            "                                                                 \n",
            " dropout_1 (Dropout)         (None, 128)               0         \n",
            "                                                                 \n",
            " dense_2 (Dense)             (None, 6)                 774       \n",
            "                                                                 \n",
            "=================================================================\n",
            "Total params: 3,557,382\n",
            "Trainable params: 3,531,702\n",
            "Non-trainable params: 25,680\n",
            "_________________________________________________________________\n"
          ]
…
